…
    "    loss='sparse_categorical_crossentropy',#'categorical_crossentropy',\n",
    "    optimizer=Adam(learning_rate=0.0001),\n",
    "    metrics=['accuracy']\n",
    ")"
   ]
  },
  {
   "cell_type": "code",
   "execution_count": 30,
   "id": "b97ce416",
   "metadata": {},
   "outputs": [
    {
     "name": "stdout",
     "output_type": "stream",
     "text": [
      "Model: \"sequential_3\"\n",
      "_________________________________________________________________\n",
      " Layer (type)                Output Shape              Param #   \n",
      "=================================================================\n",
      " conv2d_6 (Conv2D)           (None, 106, 86, 36)       1800      \n",
      "                                                                 \n",
      " max_pooling2d_6 (MaxPooling  (None, 53, 43, 36)       0         \n",
      " 2D)                                                             \n",
      "                                                                 \n",
      " conv2d_7 (Conv2D)           (None, 49, 39, 54)        48654     \n",
      "                                                                 \n",
      " max_pooling2d_7 (MaxPooling  (None, 24, 19, 54)       0         \n",
      " 2D)                                                             \n",
      "                                                                 \n",
      " flatten_3 (Flatten)         (None, 24624)             0         \n",
      "                                                                 \n",
      " dense_12 (Dense)            (None, 2024)              49841000  \n",
      "                                                                 \n",
      " dropout_9 (Dropout)         (None, 2024)              0         \n",
      "                                                                 \n",
      " dense_13 (Dense)            (None, 1024)              2073600   \n",
      "                                                                 \n",
      " dropout_10 (Dropout)        (None, 1024)              0         \n",
      "                                                                 \n",
      " dense_14 (Dense)            (None, 512)               524800    \n",
      "                                                                 \n",
      " dropout_11 (Dropout)        (None, 512)               0         \n",
      "                                                                 \n",
      " dense_15 (Dense)            (None, 20)                10260     \n",
      "                                                                 \n",
      "=================================================================\n",
      "Total params: 52,500,114\n",
      "Trainable params: 52,500,114\n",
      "Non-trainable params: 0\n",
      "_________________________________________________________________\n"
     ]
    }
   ],
   "source": [
    "cnn_model.summary()"
…
